results/model/aero_surrogate.pth (torch, 424890 bytes, 16 tensors)

net.0.weight f4 [256, 13]
0.13803916 -0.02395233 -0.24637565 0.82415974 0.77836794 -0.27545813 -0.40259886 -0.51051605
-0.6688526 -0.8143407 -1.5399679 -0.02560045 -0.81270766 -0.3550279 0.4475382 -0.14032286
0.9928316 1.3445395 -0.16830616 0.22165717 -0.07155843 -0.29477823 -0.2905378 -2.3664448
0.26375338 -0.3676798 0.23948757 0.14475806 0.8708826 1.219552 -0.74402875 -0.53339785
-0.5222819 -0.9019261 -0.26445007 -0.7972099 5.7262993 0.010124886 0.21530554 -0.035090007
0.11326569 -0.15291362 -0.59022677 0.7906967 0.20817015 -0.72347677 0.23354185 -0.221475
-0.4186575 -1.8708153 -0.023902956 -0.5219927 -2.4458456 -2.4065363 -0.0974138 0.6908861
2.3409426 0.3743256 1.3542956 0.3998621 0.31927696 0.79196745 0.94130725 0.09143147
0.0012826828 -0.26780608 0.25180784 0.0538297 0.05691195 0.7345309 0.053003334 -0.44544405
-0.2733632 -0.47748485 -0.91862506 -1.253938 0.0356293 -1.5045406 0.122856915 0.3956115
0.29101637 3.8559024 0.8712322 -2.7959132 -1.184289 -0.86978257 -4.0069475 -0.29012987
1.8436412 0.058090717 -0.08483422 0.21381278 0.13844027 -0.014776409 0.90773714 -0.8500307
0.06062533 -0.81178427 -0.2892883 -0.7893211 -0.21737774 -0.9582722 0.23120767 -0.4206523
0.06715236 0.47285235 0.09027454 -4.1828127 -2.1907063 1.2384098 -0.7004794 -0.6653446
2.5569487 -2.6258192 0.9142024 0.106739275 -0.2701795 -0.25235912 0.21091297 -0.5416539
1.3444678 1.8200651 -0.23272789 0.08363668 0.016280826 -0.05855815 -0.6578072 -0.94881904
-0.26798156 -1.0100058 0.017437868 0.14644775 -0.0010387416 -0.029298432 0.2014658 0.2797675
-0.45634282 -0.48583722 -0.6463876 -0.95705926 -0.63356274 -0.11444348 -0.6930522 0.53544337
-0.67511815 1.0226648 0.97429746 -0.8720315 -0.5607775 -0.54772735 -0.8963855 -0.72256875
-1.1110727 2.9387128 0.08679841 0.14059392 0.27535492 0.042930264 -0.017021615 1.3591801
-0.06634554 -0.40508795 -0.70767754 -0.0407021 -0.739039 -0.0059925616 -1.0817403 -0.26574084
-0.5305034 -1.2056129 -0.59793377 -1.5695578 -0.62814313 0.59362715 1.3075118 2.2901225
0.89205724 1.2925129 1.2373502 -0.32212308 -0.1107167 0.07317173 -1.7059699 -0.9424059
-0.17873757 -0.5511571 -1.4238117 1.1538428 2.870124 0.039974254 0.35360202 -1.4733819
0.20906363 -0.07052309 0.07929998 -1.7865521 -0.386173 -0.7737299 -0.60446143 0.6686632
0.7784654 2.1703417 1.6132036 1.1861999 -0.07109256 0.10218976 0.19676267 0.081989
-0.9567377 -0.08217463 -1.4975554 -1.4359068 0.0031730568 1.0312248 0.8777648 1.4726102
1.3565471 0.7402574 1.0346395 -0.27255997 0.050210953 -0.07039569 -0.010664902 -0.11012086
-0.67187154 0.5889458 -0.0037533971 -0.70744276 0.21402371 -0.4396549 -0.31842273 -1.9635426
0.16377148 -0.4851694 0.82698435 0.5109186 0.8253304 0.6568207 -0.8247928 -0.6755108
-0.4182809 -0.39079183 -0.56583977 -0.58069575 4.4819703 0.2660622 0.17168914 -0.20080054
0.7016083 -0.20141482 2.6058145 -0.693349 -0.6935771 0.37828895 0.31408823 0.99148184
00000000: 235a 0d3e ad37 c4bc e649 7cbe 22fc 523f
00000010: 1f43 473f d908 8dbe 7021 cebe 2eb1 02bf
00000020: ed39 2bbf a278 50bf ab1d c5bf 09b8 d1bc
00000030: 9c0d 50bf 38c6 b5be ba23 e53e ccb0 0fbe
00000040: 362a 7e3f df19 ac3f 7358 2cbe 19fa 623e
00000050: 3a8d 92bd 2ced 96be 5fc1 94be d573 17c0
00000060: af0a 873e 8740 bcbe 3b3c 753e 753b 143e
00000070: 29f2 5e3f 481a 9c3f ab78 3ebf c38c 08bf
00000080: 44b4 05bf a1e4 66bf 0066 87be f315 4cbf
00000090: d83d b740 dae2 253c 0e79 5c3e 8aba 0fbd
000000a0: d8f7 e73d 6395 1cbe 1a19 17bf 196b 4a3f
000000b0: 8e2a 553e c635 39bf 9825 6f3e 58ca 62be
000000c0: 475a d6be e076 efbf 22d0 c3bc 50a1 05bf
000000d0: bc88 1cc0 b104 1ac0 e380 c7bd e9dd 303f
000000e0: 01d2 1540 9ba7 bf3e 8f59 ad3f baba cc3e
000000f0: 4578 a33e 61be 4a3f 83f9 703f 6c40 bb3d
00000100: b11f a83a e11d 89be f5ec 803e 887c 5c3d
00000110: 811c 693d 380a 3c3f 061a 593d 3e11 e4be
00000120: 43f6 8bbe e578 f4be 032b 6bbf 0a81 a0bf
00000130: 07f0 113d c994 c0bf 689c fb3d 978d ca3e
00000140: 1900 953e 1bc7 7640 1309 5f3f 3ef0 32c0
00000150: c896 97bf 12aa 5ebf ea38 80c0 e78b 94be
00000160: 6ffc eb3f 88f0 6d3d 90bd adbd bdf1 5a3e
00000170: 49c3 0d3e c018 72bc 7661 683f 9d9b 59bf
00000180: 4452 783d 18d1 4fbf 991d 94be f310 4abf
00000190: 4598 5ebe 5451 75bf b4c1 6c3e bd5f d7be
000001a0: 2d87 893d b419 f23e dce1 b83d 9ad9 85c0
000001b0: 8834 0cc0 3684 9e3f 9e52 33bf 0654 2abf
000001c0: 0ca5 2340 6c0d 28c0 2b09 6a3f 1f9a da3d
000001d0: f854 8abe 3735 81be 92f9 573e d4a9 0abf
000001e0: 8517 ac3f e5f7 e83f 3850 6ebe b549 ab3d
000001f0: 5e5f 853c acda 6fbd 0d66 28bf cee5 72bf
00000200: e134 89be df47 81bf dcd9 8e3c 66f6 153e
00000210: 6226 88ba 4403 f0bc 0d4d 4e3e b03d 8f3e
00000220: c4a5 e9be a8bf f8be a879 25bf d601 75bf
00000230: 2b31 22bf 5861 eabd de6b 31bf d112 093f
00000240: 8bd4 2cbf aee6 823f 8f6b 793f 753d 5fbf
00000250: 1d8f 0fbf dc37 0cbf 8579 65bf 44fa 38bf
00000260: a137 8ebf df13 3c40 5dc3 b13d daf7 0f3e
00000270: 52fb 8c3e a5d7 2f3d ea70 8bbc 9df9 ad3f
00000280: 2ce0 87bd b067 cfbe 5b2a 35bf 3fb7 26bd
00000290: a931 3dbf 405d c4bb 7776 8abf 2f0f 88be
000002a0: 12cf 07bf 8651 9abf 3012 19bf 45e7 c8bf
000002b0: fdcd 20bf f3f7 173f 8c5c a73f 5e91 1240
000002c0: dd5d 643f 1071 a53f 7e61 9e3f 51ed a4be
000002d0: 70bf e2bd 0fdb 953d 395d dabf 8341 71bf
000002e0: fb06 37be a218 0dbf 763f b6bf 1fb1 933f
000002f0: 1db0 3740 0bbc 233d 530b b53e c797 bcbf
00000300: c714 563e 696e 90bd 0768 a23d bdad e4bf
00000310: 78b8 c5be 2a13 46bf fcbd 1abf 832d 2b3f
00000320: 8249 473f e1e6 0a40 757d ce3f 66d5 973f
00000330: fa98 91bd dd48 d13d 277c 493e d9e9 a73d
00000340: c3ec 74bf 2c4b a8bd e5af bfbf cbcb b7bf
00000350: 0ff3 4f3b 2dff 833f 32b5 603f 7e7e bc3f
00000360: 56a3 ad3f 8281 3d3f 116f 843f fb8c 8bbe
00000370: 00aa 4d3d 9e2b 90bd d7bb 2ebc 0c87 e1bd
00000380: c6ff 2bbf 27c5 163f 8efb 75bb f81a 35bf
00000390: 0829 5b3e 721a e1be 4e08 a3be 5d55 fbbf
000003a0: b6b3 273e 2068 f8be 3fb5 533f 90cb 023f
000003b0: da48 533f 6725 283f 9f25 53bf 47ee 2cbf
000003c0: ea28 d6be de15 c8be e0da 10bf 7aa8 14bf
000003d0: 4d6c 8f40 4e39 883e 47cf 2f3e a89e 4dbe
000003e0: 9a9c 333f b03f 4ebe aac5 2640 527f 31bf
000003f0: 458e 31bf 17af c13e 2cd0 a03e c1d1 7d3f

net.0.bias f4 [256]
0.083914936 0.041424386 0.15008745 0.11212274 0.23050836 -0.00488745 -0.25244752 -0.024698256
0.042599745 0.1804538 -0.006182523 0.006546403 -0.078500114 0.02407314 0.21848305 0.03996123
-0.0724835 0.099312566 -0.16584204 -0.14234398 0.1647861 0.07158753 0.08398473 0.21869507
-0.22882785 0.21821904 -0.2617202 0.13257083 -0.102316104 0.041932095 0.01796327 -0.10940897
-0.062121954 -0.15117125 -0.15236141 0.13373029 0.12291569 -0.24699368 -0.030615132 -0.16889404
0.03993196 -0.27404 0.2402431 -0.24738052 0.19964862 0.022217013 -0.15497781 -0.0037433177
0.23617156 -0.17897785 0.03989048 0.004328043 0.24404049 0.27017775 -0.17500356 0.23939382
-0.00057398714 -0.18765709 -0.2329167 0.21846443 0.11192439 0.086900845 0.15832013 -0.0032371893
0.2610573 -0.2001987 -0.013807039 -0.06323213 0.068101384 -0.0792005 -0.10686785 0.20136729
0.0745309 -0.14621143 0.23452933 0.24734174 0.119443014 0.057173662 0.11805561 0.20106265
0.17267196 0.05268572 -0.2658615 0.19739087 -0.20130742 0.18472527 0.13934366 -0.06342207
0.12719712 0.015535476 -0.26778182 -0.17553137 -0.25538987 -0.05076696 -0.09785714 -0.24484284
-0.0096863685 -0.2510275 0.24321944 -0.05534392 -0.1873387 -0.17583163 -0.26003158 -0.2579295
-0.14512081 0.09481319 0.040094808 0.050423708 -0.18025789 -0.14774123 -0.124781646 -0.062159684
-0.124485426 0.060614336 -0.002228286 0.27603585 0.2170038 -0.22284722 0.2491387 -0.17606518
0.19213215 -0.19075926 0.26218477 -0.08137657 -0.21878049 0.012208473 -0.06466188 -0.08574934
-0.08355628 0.047705382 0.13873862 -0.27583233 -0.24995655 0.09939238 0.26465464 -0.17177893
0.08992323 -0.031958815 -0.12114357 0.22122559 0.19149368 0.062065143 0.106178775 0.18211938
0.012716261 0.06452535 0.06805008 0.17451924 0.21266532 0.20756759 0.10560071 0.24207413
-0.2603183 -0.10278486 -0.120846614 0.08860072 0.010455917 -0.035912536 -0.2153063 0.03873731
-0.13980342 0.014538359 -0.11834211 0.01677238 -0.27827427 -0.27100006 -0.22746395 -0.12840159
-0.25032705 -0.22814104 -0.22093037 0.2083304 -0.14784956 -0.016350333 -0.11565826 -0.1997498
0.14470865 -0.19933608 0.17054819 -0.08508796 -0.2734457 0.124993905 0.20396957 0.06939753
0.14709736 0.0657576 0.16478015 0.19227012 0.17433636 -0.27200976 0.24347067 0.15077768
-0.20663172 0.1292877 -0.27031893 -0.061587363 -0.06775254 -0.04388969 -0.015061337 -0.018774264
-0.21554366 0.019112976 0.044538535 -0.05113489 -0.23150267 0.019640168 -0.04707582 0.25024366
-0.0041334527 0.14045237 -0.13142037 0.09938154 -0.17122503 -0.23615101 -0.11913851 -0.08937429
-0.24155217 0.03465992 0.13449503 0.016627047 0.034404896 0.014165885 -0.11720939 0.15821457
0.16163105 -0.024958314 0.099617526 0.20444536 -0.07061292 -0.09992041 0.19797242 -0.26139957
-0.036535002 -0.14888602 0.18960617 -0.015149898 -0.09758273 0.20276289 0.10416971 -0.21540852
0.15634775 -0.21004589 -0.17498685 0.23807436 0.111055076 -0.2542234 -0.053063653 0.18656309
-0.09734658 -0.23224318 0.24556524 0.01948621 -0.021202788 0.12359703 -0.117129065 -0.12379448
00000000: 98db ab3d 9eac 293d 86b0 193e 9ba0 e53d
00000010: 620a 6c3e e726 a0bb cd40 81be ff53 cabc
00000020: 127d 2e3d e2c8 383e c396 cabb 3583 d63b
00000030: abc4 a0bd 0935 c53c 05ba 5f3e 63ae 233d
00000040: 3b72 94bd 6364 cb3d 7fd2 29be 9fc2 11be
00000050: b0bd 283e 7c9c 923d 3000 ac3d 9af1 5f3e
00000060: d951 6abe d074 5f3e 3100 86be a6c0 073e
00000070: 1b8b d1bd fdc0 2b3d b527 933c cf11 e0bd
00000080: 9773 7ebd a3cc 1abe a104 1cbe 98f0 083e
00000090: 39bb fb3d e9eb 7cbe 96cc fabc 8ff2 2cbe
000000a0: b28f 233d f94e 8cbe 4a02 763e 5251 7dbe
000000b0: b070 4c3e 7400 b63c 81b2 1ebe 7352 75bb
000000c0: f5d6 713e f845 37be 3364 233d 42d2 8d3b
000000d0: c0e5 793e bd54 8a3e 2234 33be a723 753e
000000e0: a077 16ba 2e29 40be b781 6ebe 24b5 5f3e
000000f0: 9d38 e53d 12f9 b13d ac1e 223e 0627 54bb
00000100: 4da9 853e e300 4dbe eb36 62bc d97f 81bd
00000110: bd78 8b3d df33 a2bd 88dd dabd 3a33 4e3e
00000120: a8a3 983d 73b8 15be 7528 703e 2747 7d3e
00000130: 8a9e f43d ee2e 6a3d 24c7 f13d 5ee3 4d3e
00000140: ebd0 303e fbcc 573d 001f 88be d520 4a3e
00000150: 8823 4ebe 9f28 3d3e 1bb0 0e3e 6ee3 81bd
00000160: f63f 023e 8288 7e3c b31a 89be 7fbe 33be
00000170: 76c2 82be 04f1 4fbd 5369 c8bd 15b8 7abe
00000180: 93b3 1ebc ad86 80be 840e 793e 4eb0 62bd
00000190: b7d5 3fbe 350d 34be dc22 85be 560f 84be
000001a0: 8d9a 14be 6b2d c23d 743a 243d 1789 4e3d
000001b0: 8695 38be 7a49 17be 858d ffbd 279b 7ebd
000001c0: 37f2 febd bd46 783d 6f08 12bb 9254 8d3e
000001d0: 3f36 5e3e 1032 64be 371e 7f3e 6e4a 34be
000001e0: 4abe 443e 6556 43be 153d 863e c2a8 a6bd
000001f0: fe07 60be 0c06 483c 736d 84bd 5a9d afbd
00000200: 8e1f abbd b866 433d 7f11 0e3e e539 8dbe
00000210: 9cf4 7fbe 3b8e cb3d d080 873e d1e6 2fbe
00000220: ac29 b83d 3fe7 02bd 1f1a f8bd f688 623e
00000230: eb16 443e 0538 7e3d 4274 d93d 817d 3a3e
00000240: dd57 503c de25 843d d75d 8b3d 2cb5 323e
00000250: f0c4 593e 998c 543e 2f45 d83d 48e2 773e
00000260: 7148 85be de80 d2bd 6e7e f7bd 4b74 b53d
00000270: 4b4f 2b3c 0619 13bd 4179 5cbe 03ab 1e3d
00000280: a128 0fbe 4c32 6e3c 595d f2bd 3b66 893c
00000290: f779 8ebe 85c0 8abe 4fec 68be b57b 03be
000002a0: de2a 80be ce9d 69be 923b 62be 9054 553e
000002b0: e065 17be 22f1 85bc 3dde ecbd 368b 4cbe
000002c0: 812e 143e c21e 4cbe 2fa4 2e3e 9942 aebd
000002d0: 1301 8cbe cefc ff3d 66dd 503e 4b20 8e3d
000002e0: b1a0 163e ecab 863d 21bc 283e 75e2 443e
000002f0: 3b85 323e dd44 8bbe 6050 793e 7765 1a3e
00000300: 4497 53be ff63 043e 3e67 8abe 0843 7cbd
00000310: d8c1 8abd adc5 33bd d3c3 76bc 7ccc 99bc
00000320: 7ab7 5cbe d192 9c3c 0a6e 363d d272 51bd
00000330: 090f 6dbe 6be4 a03c 93d2 40bd f01f 803e
00000340: ea71 87bb bfd2 0f3e 1093 06be 8d88 cb3d
00000350: 9d55 2fbe 92d1 71be e4fe f3bd de09 b7bd
00000360: 7459 77be 8ff7 0d3d 11b9 093e 7235 883c
00000370: 26ec 0c3d 0718 683c 7a0b f0bd 0003 223e
00000380: 9c82 253e 6175 ccbc 4604 cc3d 205a 513e
00000390: 829d 90bd 12a3 ccbd 48b9 4a3e 2ad6 85be
000003a0: baa5 15bd 9475 18be 1f28 423e 4737 78bc
000003b0: 74d9 c7bd 13a1 4f3e ee56 d53d 0d94 5cbe
000003c0: a019 203e 4516 57be c12f 33be c4c9 733e
000003d0: d870 e33d 9229 82be 4659 59bd 650a 3f3e
000003e0: a55d c7bd 28d1 6dbe 7475 7b3e 8ba1 9f3c
000003f0: 78b1 adbc 7120 fd3d 5de1 efbd f687 fdbd

net.1.weight f4 [256]
1.098504 1.0873066 1.1840607 1.3477125 0.7437124 1.2397946 0.7859963 1.1682382
1.215494 1.0243748 1.4130955 0.23890539 1.3861207 0.14149131 0.90277684 0.2456438
-0.03380668 1.4359809 0.86229026 0.4273716 0.5997518 0.693663 1.0144019 0.54263866
1.0822682 1.0174189 1.1097149 1.1475352 1.0839564 0.58316153 1.275219 1.2626524
0.6106512 0.5701911 1.4522439 0.57564706 0.92326474 -0.008548936 0.80967754 1.3762696
1.0150874 1.0114743 1.1144001 0.17090605 0.4368453 0.8860916 0.54628026 1.4072976
0.5679743 0.992304 0.66925895 0.6193243 1.4123523 0.7631935 1.4467472 0.7014066
0.90180165 0.9895655 0.0049824202 0.94933033 0.6100387 -0.016209044 0.75534534 0.9206875
0.29670337 0.6512662 1.1235167 1.3451875 0.6664762 0.7636427 0.85961413 0.115456596
0.19962008 0.540581 0.41809383 1.2883637 0.64076394 0.9977727 0.071225576 0.8072051
0.30010912 1.7290243 0.7048457 0.70872086 1.9517828 1.0494534 0.49395213 1.2159656
-0.059889838 0.41581538 1.1197753 1.2801846 1.4031045 1.0792091 0.61307806 0.24116167
1.2818984 0.69045377 1.050392 0.8627888 -0.19127685 0.52334756 1.0705376 -0.055543106
1.0367191 0.404173 0.9618548 0.031080978 0.054562263 1.0197227 0.5964493 0.70276076
1.2475117 0.97504216 1.0306268 -0.010898512 0.68164706 0.69232225 0.47990903 0.34058312
1.8275243 0.75625056 0.6718549 1.931243 1.4778358 0.005063558 0.70916593 0.68335825
0.41387868 0.63449055 1.2428669 0.653458 1.0967067 1.1586947 1.3700882 1.4127945
0.015432419 1.0267637 0.76885015 0.8804444 0.5102228 2.8334277 0.63401264 1.0118568
1.0601518 -0.78009117 1.0980765 0.05959108 1.2446707 1.4877049 1.5555348 1.0805222
1.1174179 1.0260961 -0.044481486 0.69916123 0.3220578 1.4021859 1.411604 0.54715955
1.2668952 1.0764796 0.65912896 1.0799506 0.69229114 0.6364125 0.7481996 0.71882546
0.62062436 0.06354238 1.2772241 1.0327694 0.59913105 0.68622124 0.90982246 1.4068344
0.6000082 0.5008311 0.71867484 1.0713869 0.6806388 0.570424 0.6345477 3.130537
1.6297148 0.6765814 0.6239959 0.6451157 0.6997586 0.18317094 0.56482047 1.7954605
0.95115805 0.63216597 0.0007297241 0.15718356 1.5796969 0.6546678 0.7895199 0.5095751
1.1384969 -0.1283006 -0.1707722 1.0427256 0.40118408 2.2324698 0.46223477 0.878818
0.8534252 0.035502993 0.6440666 0.7140208 0.77227104 1.3085802 0.48641902 -0.026334923
0.48057017 0.9738119 1.4461942 0.8830903 1.3620772 1.2256728 0.5895003 1.0238183
0.56029075 0.34730592 1.2556704 1.0659502 0.8490397 0.05228149 0.9304968 1.1227728
1.2570319 0.5332538 1.4047235 1.1283156 1.6783264 1.7159508 1.3528295 0.762591
1.3484192 1.304339 0.2986591 0.49121028 0.2686296 0.20522964 0.58230895 0.72380954
1.2318995 1.0304646 0.01696411 1.0103954 1.3875145 0.19496845 0.83832157 -0.065502085
00000000: c79b 8c3f dd2c 8b3f 4d8f 973f d881 ac3f
00000010: f063 3e3f 97b1 9e3f 0e37 493f d488 953f
00000020: 4f95 9b3f b71e 833f 50e0 b43f 9da3 743e
00000030: 676c b13f 19e3 103e 621c 673f 0c8a 7b3e
00000040: e078 0abd 39ce b73f 0ebf 5c3f 73d0 da3e
00000050: 5589 193f e693 313f ecd7 813f 5eea 0a3f
00000060: c487 8a3f c83a 823f 230b 8e3f 6fe2 923f
00000070: 15bf 8a3f 134a 153f 603a a33f 989e a13f
00000080: a353 1c3f 0bf8 113f 21e3 b93f 9b5d 133f
00000090: 145b 6c3f d610 0cbc 0747 4f3f 9a29 b03f
000000a0: 62ee 813f fd77 813f aaa4 8e3f ff01 2f3e
000000b0: 30aa df3e e6d6 623f 06d9 0b3f 5422 b43f
000000c0: c466 113f a307 7e3f 8e54 2b3f 0a8c 1e3f
000000d0: f6c7 b43f a660 433f 032f b93f 628f 333f
000000e0: 79dc 663f 2a54 7d3f 9243 a33b 5007 733f
000000f0: 7f2b 1c3f d4c8 84bc 505e 413f 2db2 6b3f
00000100: 81e9 973e 62b9 263f 65cf 8f3f 1b2f ac3f
00000110: 2f9e 2a3f 177e 433f ac0f 5c3f 8274 ec3d
00000120: 3569 4c3e 8463 0a3f 6510 d63e 1ae9 a43f
00000130: 1b09 243f 086e 7f3f b7de 913d fea4 4e3f
00000140: e7a7 993e ab50 dd3f c570 343f bb6e 353f
00000150: 05d4 f93f 7d54 863f 4be7 fc3e c3a4 9b3f
00000160: 0c4f 75bd c1e5 d43e cc54 8f3f 17dd a33f
00000170: ee98 b33f 8623 8a3f aff2 1c3f 16f3 763e
00000180: 3f15 a43f 94c1 303f 3f73 863f badf 5c3f
00000190: 14de 43be 1bfa 053f 6007 893f 2b81 63bd
000001a0: 36b3 843f c3ef ce3e 1e3c 763f 899d fe3c
000001b0: ae7c 5f3d 4686 823f e7b0 183f 21e8 333f
000001c0: 77ae 9f3f 5d9c 793f 94eb 833f ac8f 32bc
000001d0: 6c80 2e3f 083c 313f a3b6 f53e e960 ae3e
000001e0: 51ec e93f a399 413f affe 2b3f f832 f73f
000001f0: b929 bd3f 34ec a53b e68b 353f 91f0 2e3f
00000200: e8e7 d33e f96d 223f 4316 9f3f 0649 273f
00000210: e360 8c3f 1c50 943f 0d5f af3f 73d6 b43f
00000220: 42d8 7c3c fe6c 833f 5dd3 443f ce64 613f
00000230: f69d 023f e156 3540 a74e 223f 8684 813f
00000240: 0eb3 873f 0eb4 47bf c58d 8c3f c715 743d
00000250: 5f51 9f3f 1d6d be3f c41b c73f 8d4e 8a3f
00000260: 8d07 8f3f 1e57 833f 3832 36bd 3bfc 323f
00000270: c3e4 a43e d47a b33f 71af b43f a612 0c3f
00000280: 9f29 a23f 15ca 893f adbc 283f d23b 8a3f
00000290: fe39 313f eeeb 223f 028a 3f3f f204 383f
000002a0: 3de1 1e3f 8222 823d 147c a33f ca31 843f
000002b0: a760 193f 32ac 2f3f 20ea 683f 2613 b43f
000002c0: 239a 193f 7836 003f 13fb 373f 3523 893f
000002d0: 583e 2e3f 4f07 123f b871 223f b85a 4840
000002e0: 7f9a d03f 7034 2d3f 32be 1f3f 4d26 253f
000002f0: 6123 333f 2a91 3b3e 1398 103f a6d1 e53f
00000300: 187f 733f a1d5 213f f54a 3f3a baf4 203e
00000310: 8233 ca3f 4f98 273f fa1d 4a3f 8473 023f
00000320: 44ba 913f 3c61 03be e8de 2ebe 0878 853f
00000330: 0068 cd3e c9e0 0e40 09aa ec3e 37fa 603f
00000340: 137a 5a3f 966b 113d 8ce1 243f 11ca 363f
00000350: 8eb3 453f 8e7f a73f ea0b f93e 56bc d7bc
00000360: 4b0d f63e bd4b 793f e41c b93f 3512 623f
00000370: 8c58 ae3f d9e2 9c3f 7ee9 163f 7a0c 833f
00000380: 376f 0f3f 15d2 b13e cfb9 a03f 0e71 883f
00000390: aa5a 593f 1e25 563d 0a35 6e3f 05b7 8f3f
000003a0: 6ce6 a03f 5283 083f fbcd b33f a56c 903f
000003b0: 66d3 d63f 47a4 db3f 8429 ad3f 2a39 433f
000003c0: 0099 ac3f 95f4 a63f d8e9 983e ea7f fb3e
000003d0: d289 893e b827 523e 3312 153f 954b 393f
000003e0: e2ae 9d3f 44e6 833f 51f8 8a3c a354 813f
000003f0: 139a b13f cfa5 473e 3e9c 563f f525 86bd

net.1.bias f4 [256]
-0.036541775 -0.04158497 -1.3315549 -0.09443806 -0.6240928 0.02671946 -0.83758456 0.01433237
-0.09192484 0.022222348 0.18036054 -1.1220679 0.12047693 -0.76284295 -0.679848 -0.8179935
-0.75497174 -0.12977314 -1.319403 -0.45179853 -0.6602138 -0.11921254 0.31055382 -0.3917014
0.27310416 -0.047065064 0.09958448 -0.16171303 0.05866378 -0.6079185 0.032679725 0.09603302
-0.79931706 -1.2933582 0.084756516 -0.36628097 -1.1113619 -0.7388883 -0.72870237 0.11919891
-0.017981183 -0.09835946 -0.050023057 -0.6693904 -0.36451995 -0.63154256 -1.2694829 -0.16913058
-0.4610716 -1.3416412 -0.5399274 -0.72214097 -0.040948804 -0.76725566 -0.17719272 -0.2172122
-0.85452485 -0.013730744 -0.8329105 -0.78521246 -0.28389627 -0.7249352 -0.5369635 -1.3152554
-0.86327 -0.35280937 0.014804438 -0.030506074 -0.47028577 -0.7343987 -0.5618649 -0.6701361
-0.5854644 -0.8606298 -0.46487305 0.2231365 -0.43897432 -1.3942765 -0.7365948 -0.70383006
-0.14340395 0.4522875 -1.4476266 -0.84028107 -0.017536452 0.018415425 -0.48635414 -0.15332733
-0.7280491 -0.6926248 -0.13436918 0.25353023 -0.07790442 0.04785842 -0.5419575 -0.35610446
-0.019619104 -0.69591874 -0.070907645 -0.49827337 -0.76440495 -0.6564675 -0.03653841 -0.78817874
0.46224114 -0.55669004 -1.4044955 -0.71109134 -0.70930046 0.15070206 -0.7050412 -0.9770625
-0.13666789 -0.056510136 -0.12905616 -0.7514722 -0.7776866 -0.38411042 -0.73892915 -0.33795342
-0.043119334 -0.7524123 -0.5044893 -0.30111492 -0.0576451 -0.75881 -0.5882182 -0.67214334
-0.112168476 -0.20595782 -0.05658579 -0.6630587 -0.098715365 -0.08051812 -0.047092482 -0.11349398
-0.73386425 -1.2438345 -1.3527427 -1.2723825 -0.49582958 -0.9473645 -0.79856277 0.15069507
-0.027779063 -1.2075306 0.09561595 -0.69093496 -0.0002506103 -0.052373175 0.17861691 -0.18627533
-0.6305386 -1.2612273 -0.77939284 -0.79728544 -1.1545681 -0.016472964 -0.03411287 -0.64193326
-0.49848557 -0.108345546 -0.4452151 -0.012421605 -0.3897728 -0.20754382 -1.5806279 -0.9378844
-0.7535661 -0.7836169 -0.064493455 -0.061811753 -0.5757081 -1.0638556 -1.3432624 0.1934652
-0.706815 -0.48873866 -0.43339488 -0.0678466 -0.520404 -0.51693237 -0.7313925 -3.6026835
0.0050257808 -0.84080535 0.08310974 -0.7293548 -0.7416266 -0.6945176 -0.3308955 0.0891666
0.019396914 -1.4866118 -0.754529 -0.8721458 -0.26680493 -0.6128478 -0.6023879 -0.67718834
-0.08692243 -0.7140681 -0.672875 0.0049532866 -0.5649355 -0.6953082 -0.51236933 -1.3580623
-0.10475439 -0.76329577 -0.73062634 0.12095445 -1.5262856 0.048523452 -0.82369024 -0.76861715
-0.47849667 -0.014818713 -0.17611083 -0.031287726 -0.10178437 0.203393 -0.66565484 -0.603838
-0.59113634 -1.4025292 -1.104219 0.24341814 -0.62931865 -0.7274978 -0.7443446 -0.09658011
0.25786653 -0.3008121 0.019783314 -0.046428546 0.13879234 -0.18476577 -0.089339934 -0.29225615
0.10366371 -0.04006602 -0.28906253 -0.5311484 -0.597913 -0.59646744 -0.41783184 -1.3050681
-0.057480995 0.014157284 -0.7315567 -0.13725457 0.53675926 -0.4524106 -0.61070657 -0.7966209
00000000: d4ac 15bd 0055 2abd 6470 aabf be68 c1bd
00000010: 8cc4 1fbf c5e2 da3c f16b 56bf 51d2 6a3c
00000020: 1743 bcbd a40b b63c 6fb0 383e ec9f 8fbf
00000030: 9cbc f63d ad49 43bf 850a 2ebf 0668 51bf
00000040: d445 41bf 40e3 04be 33e2 a8bf 2352 e7be
00000050: c603 29bf b425 f4bd e900 9f3e 168d c8be
00000060: 4fd4 8b3e 4cc7 40bd f3f2 cb3d 1a98 25be
00000070: 6f49 703d 8ca0 1bbf 2ddb 053d f6ac c43d
00000080: 0ba0 4cbf c38c a5bf d394 ad3d 2e89 bbbe
00000090: 1b41 8ebf c927 3dbf 3d8c 3abf 8f1e f43d
000000a0: 464d 93bc af70 c9bd fae4 4cbd 2b5d 2bbf
000000b0: 5ca2 babe c6ac 21bf 6a7e a2bf 9130 2dbe
000000c0: 9411 ecbe e6ba abbf af38 0abf 3bde 38bf
000000d0: efb9 27bd de6a 44bf 0272 35be e06c 5ebe
000000e0: 24c2 5abf eaf6 60bc 9f39 55bf af03 49bf
000000f0: da5a 91be 5a95 39bf 7176 09bf 4a5a a8bf
00000100: 43ff 5cbf 6ea3 b4be 508e 723c e0e7 f9bc
00000110: 4cc9 f0be 8e01 3cbf 61d6 0fbf 0a8e 2bbf
00000120: ffe0 15bf 3c52 5cbf d703 eebe e57d 643e
00000130: 3ec1 e0be a777 b2bf 7a91 3cbf 352e 34bf
00000140: 7cd8 12be 3a92 e73e d44b b9bf a91c 57bf
00000150: 9ba8 8fbc f2db 963c 6903 f9be d701 1dbe
00000160: 6d61 3abf dc4f 31bf 1398 09be b7ce 813e
00000170: 5a8c 9fbd 3107 443d babd 0abf 5353 b6be
00000180: 3eb8 a0bc bb27 32bf 0738 91bd b01d ffbe
00000190: 0bb0 43bf 410e 28bf 4da9 15bd 15c6 49bf
000001a0: dfaa ec3e 3d83 0ebf 82c6 b3bf 150a 36bf
000001b0: b794 35bf a451 1a3e 957d 34bf c520 7abf
000001c0: abf2 0bbe 2c77 67bd 4c27 04be 7b60 40bf
000001d0: 7816 47bf 1faa c4be 762a 3dbf 3b08 adbe
000001e0: e69d 30bd 189e 40bf 3626 01bf bc2b 9abe
000001f0: 451d 6cbd 5f41 42bf 7895 16bf 9611 2cbf
00000200: 96b8 e5bd 9be6 52be 80c6 67bd 37be 29bf
00000210: 482b cabd afe6 a4bd 0ce4 40bd 886f e8bd
00000220: 87de 3bbf f835 9fbf ac26 adbf 6edd a2bf
00000230: 60dd fdbe 7b86 72bf 9c6e 4cbf cf4f 1a3e
00000240: eb90 e3bc 5d90 9abf 4cd2 c33d 1de1 30bf
00000250: 5864 83b9 4185 56bd 5ae7 363e f6be 3ebe
00000260: fa6a 21bf e56f a1bf 4a86 47bf e61a 4cbf
00000270: e3c8 93bf 4ff2 86bc f0b9 0bbd bd55 24bf
00000280: 8039 ffbe 45e4 ddbd 3cf3 e3be fd83 4bbc
00000290: 4d90 c7be 5e86 54be 0452 cabf 3119 70bf
000002a0: b5e9 40bf 1e9b 48bf 2515 84bd 522e 7dbd
000002b0: 9b61 13bf 6c2c 88bf 06f0 abbf be1b 463e
000002c0: d4f1 34bf f43b fabe efe5 ddbe 29f3 8abd
000002d0: 3239 05bf ae55 04bf 8a3c 3bbf 5e92 66c0
000002e0: 4eaf a43b 053f 57bf 7035 aa3d ffb6 3abf
000002f0: 3edb 3dbf e8cb 31bf 236b a9be fa9c b63d
00000300: 47e6 9e3c 4c49 bebf d028 41bf f244 5fbf
00000310: a89a 88be 98e3 1cbf 1836 1abf 375c 2dbf
00000320: 6304 b2bd 2bcd 36bf 8941 2cbf 2e4f a23b
00000330: 9d9f 10bf b8ff 31bf a32a 03bf fcd4 adbf
00000340: 7889 d6bd 5a67 43bf 540a 3bbf f7b6 f73d
00000350: 545d c3bf 87c0 463d 5ddd 52bf 18c4 44bf
00000360: 84fd f4be 30ca 72bc 6656 34be 8f27 00bd
00000370: 5374 d0bd 4146 503e 5b68 2abf 2195 1abf
00000380: b654 17bf 1486 b3bf 0c57 8dbf 9b42 793e
00000390: 071b 21bf 4c3d 3abf 5e8d 3ebf cbcb c5bd
000003a0: 1507 843e 0b04 9abe 9e10 a23c dc2b 3ebd
000003b0: 941f 0e3e 3d33 3dbe dbf7 b6bd 99a2 95be
000003c0: a44d d43d 441c 24bd 0100 94be 57f9 07bf
000003d0: d410 19bf 17b2 18bf 0eee d5be 790c a7bf
000003e0: 3171 6bbd f4f3 673c 4d47 3bbf 768c 0cbe
000003f0: 0e69 093f 5da2 e7be 4457 1cbf 59ef 4bbf

net.1.running_mean f4 [256]
-1.9479516 -1.3579973 3.133059 -1.6036524 0.28553647 -3.0931816 0.5915288 -0.9173056
-0.01092146 -2.2652636 -1.5743873 1.8470097 -1.6429913 -0.6294804 -0.1360504 -0.10126498
-0.32014838 -1.4121588 2.5790927 0.7514938 0.8280146 0.26483932 -1.1901854 0.67112356
-1.3956175 -0.8020053 -1.7147872 -0.8136109 -1.0551168 0.38846162 -0.78477645 -1.2039783
1.1370083 2.1059146 -2.11871 0.26763216 2.1156964 -0.8313855 1.0891885 -0.9256294
-2.3979428 -1.5549318 -1.7890711 -0.271291 1.2346914 0.43894398 2.5265348 -0.8396582
-0.04086927 2.2671359 -0.082663596 1.0942329 -3.2012591 -0.5910392 -1.588885 0.30311316
1.9059483 -1.5380034 -0.46903676 0.5618877 0.10199568 0.9267399 0.5898947 2.6623247
-0.68999445 -0.55783284 -1.2583491 -1.5456783 -0.36592352 1.7808824 0.16701151 0.35652897
-0.5621958 0.0062285555 1.3285575 0.23383911 0.46137038 3.139421 -0.85765284 -0.050922677
1.1319073 0.80899554 2.1107283 0.7839087 -0.20926271 -1.5956826 0.3607986 -1.244374
-0.5546179 0.4539408 -1.2898781 -1.7804867 -0.89157206 -5.3431606 -0.6946945 0.3623259
-2.0464525 -0.47913972 -0.72384775 -1.4322782 0.43291348 -0.53620464 -1.216242 -0.72391635
-2.7807226 -0.39763054 3.020925 -0.83562523 -0.57057095 -1.5386958 -0.26936525 0.8317213
-1.0420913 -1.1677583 -1.5192367 -0.16629764 0.6140792 -0.94209707 1.6757926 -0.032035008
-0.7469182 -0.1778565 0.9330308 -1.3173054 -2.7056966 0.46588168 -0.76542586 -0.36260158
-1.234066 0.73215973 -1.3208331 -1.246104 -1.2374499 -1.7867725 -1.3995297 -2.1505527
0.5999084 2.8848724 1.9944171 2.672188 -0.32018614 0.753902 0.6126824 -1.4589827
-1.2067949 0.88279086 -1.4344621 0.2154432 -1.4243668 -1.5179064 -0.06747515 -0.64393884
0.49630272 2.8110147 -0.28398257 -0.20397489 2.5928235 -0.31345755 -2.9540849 -1.2885103
-0.49318457 -1.3114638 -0.6444355 -2.1289814 -1.249364 0.85944796 1.4388802 1.7693181
-0.27808133 0.7445005 -1.697861 -1.3767512 -1.2177486 3.1175253 2.5841713 -1.5397425
1.1951783 -1.0625157 0.9711531 -1.3049223 1.7400986 1.2604613 -1.0188588 -1.410873
-1.2760711 0.71205235 0.022920003 0.88907903 2.0549958 0.35023636 -0.11144056 1.0914354
-1.03206 2.7131486 0.7676339 -0.6051213 -1.131417 0.45690906 1.2963644 -0.4635768
-1.3633208 -0.5310057 -0.8056086 -1.7062283 -0.7740608 -0.16804816 -0.9098598 2.5427313
-0.59290403 0.554754 0.80247587 -1.1635913 2.5259554 -1.8940078 0.67995113 -1.7294149
-0.7942162 -1.2622516 -1.5039831 -0.46684152 -0.8991988 -1.7775207 -1.5390772 -0.035422705
1.6897693 1.8427229 2.003474 -0.6904731 -1.391472 -0.34763435 0.22608495 -1.9590361
-0.88133657 1.3842875 -3.1048067 -1.2458605 -1.0995494 -1.4876833 -2.8300636 -1.9265035
-2.341755 -2.1694198 -1.143367 -0.44764858 -1.3920412 -0.71539366 -0.97040665 2.8091877
-1.9602559 -1.4318137 0.40137702 -1.0306772 -0.61567503 -0.97072303 2.3503237 0.124441884
00000000: 7a56 f9bf dbd2 adbf 0a84 4840 7b44 cdbf
00000010: d631 923e b0f6 45c0 6e6e 173f 8ad4 6abf
00000020: ecef 32bc 14fa 10c0 8685 c9bf d06a ec3f
00000030: 8a4d d2bf a125 21bf cc50 0bbe 0464 cfbd
00000040: 7dea a3be 9fc1 b4bf db0f 2540 e661 403f
00000050: c4f8 533f 0599 873e ff57 98bf c1ce 2b3f
00000060: 98a3 b2bf 3850 4dbf 267e dbbf ce48 50bf
00000070: 110e 87bf 71e4 c63e 1ce7 48bf f61b 9abf
00000080: 7d89 913f 4ec7 0640 f298 07c0 1507 893e
00000090: 9267 0740 aed5 54bf 876a 8b3f 0cf6 6cbf
000000a0: e577 19c0 0108 c7bf 4800 e5bf a7e6 8abe
000000b0: 5e0a 9e3f 44bd e03e bfb2 2140 d7f3 56bf
000000c0: 8966 27bd c118 1140 884b a9bd d30f 8c3f
000000d0: 6ee1 4cc0 584e 17bf 9560 cbbf a631 9b3e
000000e0: 1df6 f33f 4cdd c4bf 9625 f0be dfd7 0f3f
000000f0: 1ce3 d03d d33e 6d3f 5703 173f 8763 2a40
00000100: 7aa3 30bf 22ce 0ebf 9511 a1bf c9d8 c5bf
00000110: 545a bbbe f4f3 e33f 1105 2b3e f78a b63e
00000120: 10ec 0fbf e918 cc3b 2c0e aa3f 8573 6f3e
00000130: bd38 ec3e 46ec 4840 238f 5bbf 4c94 50bd
00000140: 57e2 903f 551a 4f3f 2c16 0740 3eae 483f
00000150: f748 56be 543f ccbf 98ba b83e a647 9fbf
00000160: 70fb 0dbf ee6a e83e ba1a a5bf fde6 e3bf
00000170: 113e 64bf 2cfb aac0 80d7 31bf c882 b93e
00000180: 14f9 02c0 cd51 f5be 164e 39bf e454 b7bf
00000190: d6a6 dd3e b544 09bf d1ad 9bbf 9552 39bf
000001a0: 5cf7 31c0 3b96 cbbe d656 4140 89eb 55bf
000001b0: f010 12bf fcf3 c4bf 3eea 89be b0eb 543f
000001c0: 3f63 85bf 1b79 95bf 5976 c2bf ee49 2abe
000001d0: 4b34 1d3f 462d 71bf 5f80 d63f 2437 03bd
000001e0: 0836 3fbf 0420 36be 1bdb 6e3f 779d a8bf
000001f0: 222a 2dc0 0b88 ee3e f3f2 43bf eaa6 b9be
00000200: e0f5 9dbf d26e 3b3f 0f11 a9bf 5680 9fbf
00000210: c264 9ebf f6b4 e4bf ca23 b3bf a8a2 09c0
00000220: 9993 193f c0a1 3840 0f49 ff3f 2105 2b40
00000230: 70ef a3be b9ff 403f c1d8 1c3f f2bf babf
00000240: 4178 9abf 95fe 613f 749c b7bf 249d 5c3e
00000250: a751 b6bf c24a c2bf 6930 8abd 2dd9 24bf
00000260: 641b fe3e aae7 3340 2a66 91be cbde 50be
00000270: d2f0 2540 827d a0be ba0f 3dc0 e8ed a4bf
00000280: b082 fcbe 0cde a7bf baf9 24bf 3b41 08c0
00000290: 29eb 9fbf c804 5c3f 3a2d b83f 0479 e23f
000002a0: ad60 8ebe 9697 3e3f 8253 d9bf 6239 b0bf
000002b0: 30df 9bbf 8985 4740 1063 2540 4816 c5bf
000002c0: 9afb 983f 8400 88bf 7d9d 783f b207 a7bf
000002d0: 8dbb de3f cc56 a13f f769 82bf 7d97 b4bf
000002e0: 4c56 a3bf 1049 363f bbc2 bb3c af9a 633f
000002f0: 0d85 0340 2e52 b33e f33a e4bd 28b4 8b3f
00000300: 8b1a 84bf 3aa4 2d40 a883 443f 3be9 1abf
00000310: 46d2 90bf fcef e93e 45ef a53f f059 edbe
00000320: 4c81 aebf fdef 07bf 5d3c 4ebf b065 dabf
00000330: d928 46bf d114 2cbe 92ec 68bf 1cbc 2240
00000340: 8fc8 17bf 5c04 0e3f 0f6f 4d3f 8ff0 94bf
00000350: 41a9 2140 d96e f2bf 4711 2e3f 785d ddbf
00000360: c151 4bbf 7691 a1bf 8582 c0bf da05 efbe
00000370: e431 66bf cc85 e3bf 7b00 c5bf 6617 11bd
00000380: 5c4a d83f 58de eb3f eb38 0040 d8c2 30bf
00000390: c11b b2bf 21fd b1be d082 673e b2c1 fabf
000003a0: 469f 61bf 5530 b13f 27b5 46c0 5b78 9fbf
000003b0: 09be 8cbf 686c bebf c31f 35c0 ab97 f6bf
000003c0: 50df 15c0 c6d7 0ac0 da59 92bf 3232 e5be
000003d0: 682e b2bf 0a24 37bf 926c 78bf bbc9 3340
000003e0: aae9 fabf ac45 b7bf 4a81 cd3e 3bed 83bf
000003f0: e19c 1dbf 4e81 78bf b46b 1640 63db fe3d

net.1.running_var f4 [256]
10.474426 2.655704 6.8731365 4.3187284 33.984375 36.788612 5.1943903 3.3862333
2.7333064 18.956266 7.6201816 5.504876 4.602119 30.031326 26.54647 28.830566
14.807211 3.7051392 8.204257 1.5230418 21.005428 4.9465837 0.89747167 5.012135
1.558635 2.9573584 0.708817 0.778182 3.874821 19.503891 3.5469007 5.1099706
35.480083 5.113563 12.669091 13.137072 0.5274848 15.264383 12.195523 0.7829281
14.899503 2.504115 6.6789246 21.18326 2.7393987 1.7804052 6.539328 3.39371
9.913975 8.20933 7.8978596 22.915236 49.985912 4.1950865 7.9495564 3.9278398
0.8794821 3.522953 3.98838 8.610221 8.060502 2.6219788 1.6302831 7.6143894
31.284246 7.161191 1.8933895 2.210774 7.2523346 1.9818645 9.38707 13.267293
28.569744 24.386757 3.8746297 1.2043386 18.25358 6.18774 31.313591 2.8877907
0.39831012 2.3817327 5.304035 37.287827 2.6955726 2.914152 10.073665 2.5090122
6.3194075 34.380245 1.3883488 6.822257 1.0446332 132.05899 7.674849 6.013584
7.250375 33.418957 2.6453016 31.627821 6.134019 33.385612 4.145391 24.774963
33.299046 29.905556 7.0181847 12.517371 27.452835 0.7289944 17.020782 2.359994
0.8124488 3.059076 2.3134568 23.32854 28.761343 7.8446627 30.629595 2.684949
3.6827533 4.309135 22.10173 2.1577501 22.960667 6.7711883 39.210854 8.819303
5.873226 4.296374 0.65288085 39.81501 0.9209074 1.6914389 4.923962 10.2501135
26.610764 7.4579573 7.475605 5.131509 24.58085 1.0528418 28.94764 4.894395
2.3226447 6.363909 0.8805852 16.228348 1.678737 8.060753 1.3689601 0.71638626
3.2845225 7.300593 18.857876 6.0752974 1.0118612 2.1723602 23.433393 31.071716
3.2108662 4.0198 31.585123 6.9740114 8.480469 18.557308 2.675425 2.4378006
19.570564 19.859959 7.6315804 2.105407 35.971558 4.6254215 6.8195257 5.1329627
10.2498455 33.485317 16.053606 3.4429817 0.71807593 20.439806 30.70685 9.203489
2.8229647 33.569946 6.0194364 22.14591 2.0347486 15.081933 4.3777094 0.79551697
4.1220827 6.2828803 5.729055 27.433224 2.2632616 4.6160913 4.5457087 22.922352
1.66835 11.0126295 12.179533 0.50557685 32.494373 3.0672436 33.96401 7.387347
1.3671811 7.856472 31.13566 1.9212486 5.473094 5.120062 23.856392 22.537996
2.5756671 2.0906134 8.35143 7.584657 3.8509636 3.7989583 26.072744 6.9994135
21.047497 5.347316 3.141823 1.995211 24.620367 17.99381 29.581142 2.1493542
3.8119388 3.9913332 36.390038 1.4988215 3.8558776 5.6934724 22.056623 0.6251267
24.518946 4.769028 2.4165328 25.231339 36.565945 8.461458 35.64901 7.159147
9.812154 1.947022 14.5079975 2.2302341 5.773589 13.465364 1.7416369 13.001168
00000000: 4097 2741 0ef7 2940 bcf0 db40 0633 8a40
00000010: 00f0 0742 8a27 1342 7238 a640 0cb8 5840
00000020: 7eee 2e40 6fa6 9741 87d8 f340 f227 b040
00000030: 8f44 9340 2840 f041 2c5f d441 00a5 e641
00000040: 56ea 6c41 0021 6d40 a344 0341 09f3 c23f
00000050: 1e0b a841 6a4a 9e40 b4c0 653f 6963 a040
00000060: 5a81 c73f 5c45 3d40 0875 353f f036 473f
00000070: 11fd 7740 f807 9c41 6c00 6340 e184 a340
00000080: 9beb 0d42 4fa2 a340 99b4 4a41 7231 5241
00000090: 3e09 073f ea3a 7441 dd20 4341 fa6d 483f
000000a0: 5d64 6e41 6c43 2040 c0b9 d540 5177 a941
000000b0: 4f52 2f40 51e4 e33f 2d42 d140 8b32 5940
000000c0: a49f 1e41 6a59 0341 44bb fc40 6752 b741
000000d0: 93f1 4742 263e 8640 c462 fe40 ba61 7b40
000000e0: bd25 613f 1078 6140 9e41 7f40 77c3 0941
000000f0: d1f7 0041 80ce 2740 1ead d03f 14a9 f340
00000100: 2346 fa41 7a28 e540 965a f23f 527d 0d40
00000110: 2013 e840 bcad fd3f 7031 1641 d546 5441
00000120: d68e e441 1418 c341 eff9 7740 c427 9a3f
00000130: 5507 9241 f701 c640 3c82 fa41 90d1 3840
00000140: 4eef cb3e 4f6e 1840 a8ba a940 bc26 1542
00000150: 4384 2c40 7781 3a40 bb2d 2141 a893 2040
00000160: 9638 ca40 5f85 0942 6ab5 b13f ee4f da40
00000170: 8ab6 853f 1a0f 0443 5d98 f540 486f c040
00000180: 1203 e840 03ad 0542 9f4c 2940 c705 fd41
00000190: e249 c440 de8a 0542 0ba7 8440 2033 c641
000001a0: 3932 0542 943e ef41 f894 e040 2747 4841
000001b0: 689f db41 619f 3a3f 902a 8841 240a 1740
000001c0: a5fc 4f3f e7c7 4340 ad0f 1440 daa0 ba41
000001d0: 3b17 e641 7a07 fb40 6909 f541 34d6 2b40
000001e0: 3bb2 6b40 6fe4 8940 58d0 b041 9418 0a40
000001f0: 72af b741 93ad d840 ead7 1c42 dd1b 0d41
00000200: 78f1 bb40 e57b 8940 3323 273f 9242 1f42
00000210: 96c0 6b3f 1281 d83f 1991 9d40 7700 2441
00000220: d8e2 d441 96a7 ee40 2838 ef40 5235 a440
00000230: 95a5 c441 85c3 863f c494 e741 e29e 9c40
00000240: 36a6 1440 24a5 cb40 086e 613f a8d3 8141
00000250: dbe0 d63f d8f8 0041 163a af3f 1765 373f
00000260: 9e35 5240 759e e940 eedc 9641 d668 c240
00000270: ab84 813f f307 0b40 9777 bb41 e092 f841
00000280: d57e 4d40 34a2 8040 55ae fc41 1a2b df40
00000290: 00b0 0741 5e75 9441 2a3a 2b40 ed04 1c40
000002a0: 8490 9c41 32e1 9e41 e835 f440 fdbe 0640
000002b0: e0e2 0f42 7403 9440 8e39 da40 3b41 a440
000002c0: 5eff 2341 f7f0 0542 c96d 8041 d059 5c40
000002d0: d3d3 373f b984 a341 a1a7 f541 7e41 1341
000002e0: 74ab 3440 a047 0642 399f c040 d32a b141
000002f0: 5239 0240 994f 7141 3216 8c40 00a7 4b3f
00000300: 1ae8 8340 5b0d c940 6b54 b740 3e77 db41
00000310: 47d9 1040 05b7 9340 7276 9140 fa60 b741
00000320: 7e8c d53f bb33 3041 5edf 4241 7c6d 013f
00000330: 3dfa 0142 b84d 4440 25db 0742 2665 ec40
00000340: caff ae3f 3868 fb40 d515 f941 79eb f53f
00000350: 9623 af40 8cd7 a340 e4d9 be41 d14d b441
00000360: bbd7 2440 9ccc 0540 759f 0541 83b5 f240
00000370: 3076 7640 2222 7340 fb94 d041 32fb df40
00000380: 4661 a841 361d ab40 a113 4940 1363 ff3f
00000390: 83f6 c441 53f3 8f41 2ea6 ec41 058f 0940
000003a0: cef6 7340 0172 7f40 668f 1142 62d9 bf3f
000003b0: b3c6 7640 ed30 b640 f773 b041 4e08 203f
000003c0: cd26 c441 e19b 9840 79a8 1a40 c8d9 c941
000003d0: 8743 1242 2262 0741 9698 0e42 bb17 e540
000003e0: 95fe 1c41 0438 f93f c220 6841 28bc 0e40
000003f0: 3ec1 b840 2272 5741 f5ed de3f c904 5041

net.3.weight f4 [256, 256]
0.83437836 0.6985713 0.22408925 1.0582224 -0.053937014 0.79885244 -0.17928983 0.5185938
0.19483522 0.6195448 0.8469354 0.19297339 0.68704087 -0.6495641 -0.39166585 -0.69374233
-1.0215874 0.95135313 0.26534823 -0.5151577 0.24826938 -0.21829598 0.15415667 -0.010499525
0.18369617 0.09854357 0.5450474 0.92869115 0.78269804 -0.18278255 -0.009564625 0.75401735
0.4624921 0.4374021 0.9473925 -0.521988 0.23409562 -0.0088527305 -0.17126426 0.13095587
0.7210811 0.56186384 0.6122136 -0.7295132 0.119520456 -1.0533392 0.3604111 0.66292167
-0.49917382 0.21318138 -0.48814368 0.283436 0.865237 -0.13516437 0.90513873 -0.33671334
0.2834747 0.48926517 -0.3809381 -0.62602043 -0.036764193 -0.17241102 0.17851572 0.36753687
-0.774533 -0.59136313 0.4081011 0.69633824 -0.664745 0.20022884 -0.63166195 -0.77383137
-0.059682425 -0.53867066 0.11860917 0.38963997 -0.20117277 0.35592517 -0.41538596 -0.18487617
-1.1399331 -0.58406407 0.4202139 0.21104719 -0.21744084 0.60241 -0.12979217 0.28230712
0.16042905 -0.39270404 0.79258 0.41136274 -0.25852504 0.80457515 -0.7200502 0.008964379
0.6965242 -0.15168618 0.3652865 0.113923 -0.7107461 -0.477899 0.3062302 -0.5994754
0.53769326 -0.018019464 0.24076729 0.03395519 -0.30524403 0.22577156 -0.16657418 0.27230614
0.68422675 0.24954395 0.5151236 -0.96321416 0.08544363 -0.54055554 0.49340495 -0.5506388
0.8731772 -0.28719634 -0.2530482 0.58990955 0.97192645 -0.52194947 0.22362581 -0.4615649
0.07858426 -0.111157015 0.80146456 0.1337257 0.6215716 0.44788015 0.72469306 0.7580416
-0.7943145 0.30583766 0.21565555 0.3206077 0.14607015 0.31446597 0.12805465 0.37755644
0.12414902 -0.29463315 0.36021242 0.014198364 0.8541204 0.9375194 0.95914847 0.4655742
0.20566681 0.31443462 -0.8870109 -0.32959223 0.44276658 1.0120122 0.8379547 -0.18317509
0.7064664 0.6966015 0.2600314 0.71115464 -0.5382071 -0.22529274 0.37702924 0.3157837
-0.502436 0.14981796 0.99661547 0.7263801 0.40950224 0.3157687 0.31275693 0.58247733
0.27855125 0.3404385 -0.4374411 0.6211471 -0.815915 -0.038375705 -0.17172919 -0.5018411
0.90032125 0.24778913 0.056061246 0.27962363 -0.20198087 0.1692366 -0.8576217 -0.14287485
0.11137216 0.39884898 -0.5964329 -0.7326366 -0.21902338 -0.3265159 0.20966911 -0.07718074
0.46680668 -0.46154985 -0.66798115 0.53562486 0.3617253 1.3696448 0.3904757 0.32148919
0.5419087 -0.48087764 0.27527946 -0.9389492 0.5195768 0.7276462 0.2982412 -0.4138601
0.09897752 0.2227271 0.88456064 -0.19916686 0.49357247 0.51780665 -0.14279875 -0.47606388
0.34912172 0.29921338 0.39760703 0.32813132 -0.013361558 -0.22915694 -0.5799604 0.8787968
0.55627644 -0.31736016 0.7605023 0.54218566 0.45605287 0.90333027 0.9895784 0.13323486
0.8035208 0.78976804 -0.4549815 0.34859517 0.27846876 -0.24035773 0.57376164 0.31088513
0.6120457 0.45421636 -0.5357295 0.1943008 0.61990535 0.035241768 0.28446394 -0.9828371
00000000: d299 553f 92d5 323f a777 653e d573 873f
00000010: 0fed 5cbd 9881 4c3f c197 37be 90c2 043f
00000020: e282 473e 7d9a 1e3f c2d0 583f d19a 453e
00000030: e9e1 2f3f d549 26bf 6d88 c8be 1999 31bf
00000040: 60c3 82bf e18b 733f b9db 873e 60e1 03bf
00000050: 543a 7e3e fb88 5fbe 3fdb 1d3e 3306 2cbc
00000060: d91a 3c3e 36d1 c93d 3a88 0b3f b4be 6d3f
00000070: e65e 483f 592b 3bbe f2b4 1cbc 4807 413f
00000080: c4cb ec3e 2bf3 df3e 5188 723f 01a1 05bf
00000090: c3b6 6f3e 0b0b 11bc e65f 2fbe 4c19 063e
000000a0: c598 383f 4fd6 0f3f 08ba 1c3f 61c1 3abf
000000b0: 24c7 f43d d2d3 86bf ce87 b83e 3cb5 293f
000000c0: b693 ffbe 384c 5a3e f8ed f9be 861e 913e
000000d0: 2c80 5d3f 8768 0abe 2cb7 673f b165 acbe
000000e0: 9923 913e f780 fa3e 520a c3be e042 20bf
000000f0: 0d96 16bd 848c 30be d3cc 363e cb2d bc3e
00000100: cb47 46bf 9363 17bf a1f2 d03e 3943 323f
00000110: ba2c 2abf ca08 4d3e 99b4 21bf d019 46bf
00000120: 8f75 74bd 52e6 09bf 5de9 f23d e47e c73e
00000130: 3c00 4ebe d33b b63e 78ad d4be 2e50 3dbe
00000140: 54e9 91bf 3985 15bf 4726 d73e c11c 583e
00000150: d0a8 5ebe 8b37 1a3f 3de8 04be 8f8a 903e
00000160: 8347 243e 8110 c9be 86e6 4a3f 239e d23e
00000170: 655d 84be a3f8 4d3f 3655 38bf 55df 123c
00000180: 694f 323f 9f53 1bbe d506 bb3e 7650 e93d
00000190: 75f3 35bf 2daf f4be 34ca 9c3e 3877 19bf
000001a0: 44a6 093f 8e9d 93bc b38b 763e 9914 0b3d
000001b0: f248 9cbe a930 673e 6c92 2abe b66b 8b3e
000001c0: 7c29 2f3f 7388 7f3e 24df 033f 3495 76bf
000001d0: 12fd ae3d d961 0abf 939f fc3e aaf6 0cbf
000001e0: 8a88 5f3f 660b 93be 898f 81be 5004 173f
000001f0: 2cd0 783f 7b9e 05bf 2afe 643e 3c52 ecbe
00000200: c9f0 a03d 4aa6 e3bd c82c 4d3f 64ef 083e
00000210: 511f 1f3f 8c50 e53e 7c85 393f 040f 423f
00000220: 3258 4bbf c196 9c3e cfd4 5c3e b126 a43e
00000230: 6a93 153e af01 a13e c220 033e 144f c13e
00000240: d741 fe3d 28da 96be c36d b83e 41a0 683c
00000250: a2a7 5a3f 4501 703f c18a 753f be5f ee3e
00000260: 529a 523e 93fd a03e 2513 63bf 50c0 a8be
00000270: 4db2 e23e 9e89 813f 3384 563f 4092 3bbe
00000280: fbda 343f 7a54 323f d622 853e 3b0e 363f
00000290: f1c7 09bf 24b3 66be fa09 c13e 67ae a13e
000002a0: a59f 00bf e169 193e 3122 7f3f 0cf4 393f
000002b0: 47aa d13e 6fac a13e ad21 a03e 3c1d 153f
000002c0: 459e 8e3e f44d ae3e 48f8 dfbe 7f03 1f3f
000002d0: cedf 50bf d82f 1dbd c7d9 2fbe a978 00bf
000002e0: 747b 663f 6fbc 7d3e 7aa0 653d d42a 8f3e
000002f0: 13d4 4ebe 5c4c 2d3e 198d 5bbf c94d 12be
00000300: 1617 e43d ef35 cc3e d4af 18bf 128e 3bbf
00000310: aa47 60be 182d a7be 80b3 563e f010 9ebd
00000320: 4901 ef3e 4350 ecbe d000 2bbf b61e 093f
00000330: 0f34 b93e 8550 af3f 6eec c73e 3b9a a43e
00000340: 87ba 0a3f 9835 f6be 6ef1 8c3e fa5e 70bf
00000350: fc02 053f 0547 3a3f 12b3 983e 79e5 d3be
00000360: bab4 ca3d 9312 643e 9172 623f 66f2 4bbe
00000370: 88b5 fc3e fa8e 043f d639 12be a5be f3be
00000380: 15c0 b23e 7f32 993e 2693 cb3e d400 a83e
00000390: 70ea 5abc 1ea8 6abe 4978 14bf d4f8 603f
000003a0: 2268 0e3f 087d a2be 47b0 423f aecc 0a3f
000003b0: c37f e93e a740 673f 0355 7d3f b86e 083e
000003c0: 8ab3 4d3f 3d2e 4a3f 56f3 e8be 117b b23e
000003d0: 7593 8e3e 5620 76be 0be2 123f 562c 9f3e
000003e0: 07af 1c3f 0c8f e83e 9225 09bf caf6 463e
000003f0: 1eb2 1e3f ac59 103d 42a5 913e 369b 7bbf

net.3.bias f4 [256]
0.023484994 -0.046900615 0.0481663 -0.0007587376 0.047732014 0.044736132 0.05108379 0.03910189
0.008120265 -0.038607523 -0.003206995 0.048980698 -0.028109627 0.02297186 -0.011029094 -0.008093024
-0.008878358 0.0255566 -0.05559155 0.06273672 -0.014651956 -0.0027049058 -0.036903024 0.009319653
-0.008690842 -0.027234524 0.054185938 -0.03339659 0.03283236 0.021465186 0.03527341 -0.0464339
0.025979228 -0.052185055 0.052301537 -0.03887991 0.01848092 -0.013276121 0.048064064 0.004268566
0.06116797 0.026750563 -0.027408121 -0.023173299 0.019043246 0.04800387 0.01886306 -0.020568946
-0.028903212 -0.042015877 0.042885818 -0.0020258618 0.027747354 0.00038135372 0.05759683 0.060541708
7.056755e-05 -0.0015770283 -0.048767444 0.05063553 -0.032492556 -0.033023864 0.0062724664 -0.0012834064
-0.013597297 0.048525978 0.059590835 -0.04354487 -0.00030159895 0.041389335 -0.0009641217 0.0041520623
0.005435476 -0.026025096 -0.032923855 0.025227036 -0.04310082 -0.030053826 0.0343171 -0.0517828
-0.05193017 0.030108191 -0.033500135 -0.038962707 -0.0044449857 -0.008213412 -0.019114532 0.045014556
-0.014994662 -0.037634227 0.032581784 0.01906589 0.022098755 -0.05929161 0.045457456 0.011319979
0.030269844 -0.0034530913 0.008970888 0.041018695 0.01694651 0.030750858 0.04564262 -0.050046273
0.0017711617 -0.056187913 0.07207516 -0.045615338 -0.03484179 0.013235273 -0.042729467 -0.0056331865
0.01563867 0.060273208 -0.026167015 -0.018589178 -0.00558922 -0.018375957 -0.013781903 -0.025077721
0.036798257 -0.03044751 0.026278693 0.05762802 0.03831888 -0.009832511 0.016544186 0.007944482
0.008098399 0.04287761 0.041766763 -0.036370967 0.03325102 -0.0408641 0.050503977 0.0330804
0.0127110435 0.045125812 0.0034234608 -0.033008497 -0.048699506 0.057341766 -0.05040591 0.032543708
-0.036437638 -0.041389395 -0.03628196 -0.021444403 0.054321896 0.010271212 -0.035462826 0.03695349
0.034995772 -0.01954211 0.031881813 0.046085373 -0.021973448 -0.01974467 -0.050496906 0.03915766
0.0064712553 0.03045906 0.024620468 -0.017361665 0.056009088 -0.014442174 0.0146955345 0.05965101
0.016748574 0.007016934 -0.058559805 0.03993188 -0.05599326 0.007883594 -0.024432134 -0.019129893
0.0090229595 -0.04923285 0.03814942 0.0064874957 0.038881246 0.040694673 -0.054153886 0.060385276
-0.021522855 -0.02552045 -0.018934483 0.018939644 0.057277378 0.041219227 0.041004587 0.046193596
0.030197842 -0.016919311 -0.0085845925 -0.039418496 0.0396375 0.03040163 -0.012957669 -0.03621873
-0.009861188 -0.04124551 0.010366377 0.026852803 0.059375763 0.059642736 0.010426214 0.04912428
0.054430813 0.025293529 -0.0038202042 0.002155788 0.0149392625 0.00017009526 0.004579911 0.014704937
0.0049320417 0.038482454 0.05394805 -0.054251693 0.060186055 -0.050785318 -0.03381462 0.04661297
-0.044546 -0.013926046 0.0017325714 -0.009284206 -0.014387518 -0.034299135 0.04767691 -0.012949557
-0.024599778 0.009275946 -0.019257052 -0.037570126 0.018261198 -0.059411936 0.020037489 0.010780355
0.00084488315 0.032222304 0.033810962 -0.034154437 -0.0424264 0.033294808 0.0317262 0.02210113
0.004160252 -0.026914729 -0.059622988 -0.016201237 0.01615776 -0.05201268 -0.0041508186 0.06114191
00000000: 9a63 c03c dc1a 40bd 074a 453d 05e6 46ba
00000010: a582 433d 3c3d 373d 3c3d 513d 4e29 203d
00000020: dc0a 053c ec22 1ebd 732c 52bb fc9f 483d
00000030: 2946 e6bc 7b2f bc3c 60b3 34bc 9a98 04bc
00000040: 8876 11bc 135c d13c f7b3 63bd 1c7c 803d
00000050: c20e 70bc ca44 31bb a027 17bd 75b1 183c
00000060: 0964 0ebc f01a dfbc 13f2 5d3d ddca 08bd
00000070: 3a7b 063d c2d7 af3c da7a 103d 7931 3ebd
00000080: 64d2 d43c ffbf 55bd 233a 563d 8a40 1fbd
00000090: 4c65 973c 1684 59bc d3de 443d 54df 8b3b
000000a0: 448b 7a3d ff23 db3c ff86 e0bc eed5 bdbc
000000b0: 9500 9c3c b59f 443d b486 9a3c 3580 a8bc
000000c0: 6ec6 ecbc d718 2cbd 0aa9 2f3d 52c4 04bb
000000d0: 6b4e e33c 6ef0 c739 a7ea 6b3d 95fa 773d
000000e0: aafd 9338 4ab4 ceba 5fc0 47bd 3467 4f3d
000000f0: ea16 05bd 0844 07bd 4389 cd3b f937 a8ba
00000100: 32c7 5ebc 2dc3 463d 8515 743d 1b5c 32bd
00000110: ed1f 9eb9 dd87 293d 1dbd 7cba 060e 883b
00000120: 141c b23b 9532 d5bc 2adb 06bd eea8 ce3c
00000130: 7c8a 30bd 7133 f6bc 1690 0c3d 341a 54bd
00000140: bbb4 54bd 74a5 f63c 7037 09bd 5c97 1fbd
00000150: 3ea7 91bb 8c91 06bc 1496 9cbc 2f61 383d
00000160: 2cac 75bc 5926 1abd 7a74 053d 1230 9c3c
00000170: 7308 b53c c2db 72bd 9931 3a3d 6f77 393c
00000180: 77f8 f73c 424d 62bb a2fa 123c 3803 283d
00000190: 68d3 8a3c 39e9 fb3c c2f3 3a3d 52fd 4cbd
000001a0: 5326 e83a 4c25 66bd 249c 933d 26d7 3abd
000001b0: 44b6 0ebd c2d8 583c 1805 2fbd 9896 b8bb
000001c0: ab1c 803c 0ae1 763d 355c d6bc 5548 98bc
000001d0: c725 b7bb 2d89 96bc 7ecd 61bc cb6f cdbc
000001e0: c5b9 163d 0e6d f9bc 6a46 d73c 5c0b 6c3d
000001f0: 42f4 1c3d 8a18 21bc ac87 873c 9329 023c
00000200: 26af 043c 6fa0 2f3d a013 2b3d b9f9 14bd
00000210: 3932 083d 1d61 27bd 42dd 4e3d 507f 073d
00000220: fb41 503c d8d5 383d 245c 603b eb33 07bd
00000230: 2279 47bd 33df 6a3d 6d76 4ebd 8d4c 053d
00000240: a23f 15bd ed87 29bd 649c 14bd 2cac afbc
00000250: a380 5e3d 9648 283c 7841 11bd 8b5c 173d
00000260: ba57 0f3d c616 a0bc 8196 023d 04c4 3c3d
00000270: a901 b4bc 93bf a1bc d8d5 4ebd c863 203d
00000280: d30c d43b 4785 f93c ddb0 c93c 0d3a 8ebc
00000290: c969 653d de9e 6cbc 8ac5 703c 9e54 743d
000002a0: 4e34 893c 4fee e53b 68dc 6fbd 9c8f 233d
000002b0: 3059 65bd 312a 013c e625 c8bc 4bb6 9cbc
000002c0: 09d5 133c 63a8 49bd 9142 1c3d 0f95 d43b
000002d0: f141 1f3d 75af 263d 77d0 5dbd 8d56 773d
000002e0: b350 b0bc 4310 d1bc 7d1c 9bbc 5027 9b3c
000002f0: af9b 6a3d 7ed5 283d 6df4 273d 7f35 3d3d
00000300: 7761 f73c 5e9a 8abc 64a6 0cbc 4a75 21bd
00000310: ee5a 223d d70c f93c 674c 54bc 175a 14bd
00000320: d290 21bc 0df1 28bd bdd7 293c 69fa db3c
00000330: 0034 733d f14b 743d b6d2 2a3c 8b36 493d
00000340: d8f2 5e3d 6034 cf3c 645c 7abb 1f48 0d3b
00000350: cfc3 743c 995b 3239 1413 963b faec 703c
00000360: f79c a13b c79f 1d3d a1f8 5c3d 0637 5ebd
00000370: a785 763d 4404 50bd 3381 0abd 3eed 3e3d
00000380: de75 36bd 122a 64bc 7317 e33a c81c 18bc
00000390: a0b9 6bbc 407d 0cbd dd48 433d 612a 54bc
000003a0: 7985 c9bc 23fa 173c f7c0 9dbc 22e3 19bd
000003b0: 8298 953c ee59 73bd a925 a43c 16a0 303c
000003c0: 267b 5d3a 89fb 033d 5d7d 0a3d 86e5 0bbd
000003d0: 4ec7 2dbd 2360 083d 55f3 013d 6e0d b53c
000003e0: b952 883b 477c dcbc 3c37 74bd 75b8 84bc
000003f0: 475d 843c 3f0b 55bd 9703 88bb f06f 7a3d
